…
Namespace(arch='inception_v1_cpm_pretrained', batch_size=180, caffe_sampler=False, crop_height=160, crop_width=80, data_dir='/home/zhouzhp/video-counting/SST-master/data', dataset='market1501', dilation=2, epochs=750, features=512, height=160, logs_dir='/home/zhouzhp/video-counting/SST-master/logs', lr=0.01, margin=0.2, momentum=0.9, seed=1, split=0, use_relu=False, weight_decay=0.0002, width=80, workers=4)
Files already downloaded and verified
Market1501 dataset loaded
  subset   | # ids | # images
  ---------------------------
  train    |   651 |    11387
  val      |   100 |     1549
  trainval |   751 |    12936
  query    |   750 |     3368
  gallery  |   751 |    15913
ModuleList(
  (0): Conv2d(3, 64, kernel_size=(3, 3), stride=(1, 1), padding=(1, 1))
  (1): ReLU(inplace)
  (2): Conv2d(64, 64, kernel_size=(3, 3), stride=(1, 1), padding=(1, 1))
  (3): ReLU(inplace)
  (4): MaxPool2d(kernel_size=(2, 2), stride=(2, 2), dilation=(1, 1), ceil_mode=False)
  (5): Conv2d(64, 128, kernel_size=(3, 3), stride=(1, 1), padding=(1, 1))
  (6): ReLU(inplace)
  (7): Conv2d(128, 128, kernel_size=(3, 3), stride=(1, 1), padding=(1, 1))
  (8): ReLU(inplace)
  (9): MaxPool2d(kernel_size=(2, 2), stride=(2, 2), dilation=(1, 1), ceil_mode=False)
  (10): Conv2d(128, 256, kernel_size=(3, 3), stride=(1, 1), padding=(1, 1))
  (11): ReLU(inplace)
  (12): Conv2d(256, 256, kernel_size=(3, 3), stride=(1, 1), padding=(1, 1))
  (13): ReLU(inplace)
  (14): Conv2d(256, 256, kernel_size=(3, 3), stride=(1, 1), padding=(1, 1))
  (15): ReLU(inplace)
  (16): MaxPool2d(kernel_size=(2, 2), stride=(2, 2), dilation=(1, 1), ceil_mode=True)
  (17): Conv2d(256, 512, kernel_size=(3, 3), stride=(1, 1), padding=(1, 1))
  (18): ReLU(inplace)
  (19): Conv2d(512, 512, kernel_size=(3, 3), stride=(1, 1), padding=(1, 1))
  (20): ReLU(inplace)
  (21): Conv2d(512, 512, kernel_size=(3, 3), stride=(1, 1), padding=(1, 1))
  (22): ReLU(inplace)
  (23): MaxPool2d(kernel_size=(2, 2), stride=(2, 2), dilation=(1, 1), ceil_mode=False)
  (24): Conv2d(512, 512, kernel_size=(3, 3), stride=(1, 1), padding=(1, 1))
  (25): ReLU(inplace)
  (26): Conv2d(512, 512, kernel_size=(3, 3), stride=(1, 1), padding=(1, 1))
  (27): ReLU(inplace)
  (28): Conv2d(512, 512, kernel_size=(3, 3), stride=(1, 1), padding=(1, 1))
  (29): ReLU(inplace)
  (30): MaxPool2d(kernel_size=(3, 3), stride=(1, 1), padding=(1, 1), dilation=(1, 1), ceil_mode=False)
  (31): Conv2d(512, 1024, kernel_size=(3, 3), stride=(1, 1), padding=(6, 6), dilation=(6, 6))
  (32): ReLU(inplace)
  (33): Conv2d(1024, 1024, kernel_size=(1, 1), stride=(1, 1))
  (34): ReLU(inplace)
)
Namespace(arch='inception_v1_cpm_pretrained', batch_size=180, caffe_sampler=False, crop_height=160, crop_width=80, data_dir='/home/zhouzhp/video-counting/SST-master/data', dataset='market1501', dilation=2, epochs=750, features=512, height=160, logs_dir='/home/zhouzhp/video-counting/SST-master/logs', lr=0.01, margin=0.2, momentum=0.9, seed=1, split=0, use_relu=False, weight_decay=0.0002, width=80, workers=4)
…
Namespace(arch='inception_v1_cpm_pretrained', batch_size=180, caffe_sampler=False, crop_height=160, crop_width=80, data_dir='/home/zhouzhp/video-counting/SST-master/data', dataset='market1501', dilation=2, epochs=750, features=512, height=160, logs_dir='/home/zhouzhp/video-counting/SST-master/logs', lr=0.01, margin=0.2, momentum=0.9, seed=1, split=0, use_relu=False, weight_decay=0.0002, width=80, workers=4)
Files already downloaded and verified
Market1501 dataset loaded
  subset   | # ids | # images
  ---------------------------
  train    |   651 |    11387
  val      |   100 |     1549
  trainval |   751 |    12936
  query    |   750 |     3368
  gallery  |   751 |    15913
ModuleList(
  (0): Conv2d(3, 64, kernel_size=(3, 3), stride=(1, 1), padding=(1, 1))
  (1): ReLU(inplace)
  (2): Conv2d(64, 64, kernel_size=(3, 3), stride=(1, 1), padding=(1, 1))
  (3): ReLU(inplace)
  (4): MaxPool2d(kernel_size=(2, 2), stride=(2, 2), dilation=(1, 1), ceil_mode=False)
  (5): Conv2d(64, 128, kernel_size=(3, 3), stride=(1, 1), padding=(1, 1))
  (6): ReLU(inplace)
  (7): Conv2d(128, 128, kernel_size=(3, 3), stride=(1, 1), padding=(1, 1))
  (8): ReLU(inplace)
  (9): MaxPool2d(kernel_size=(2, 2), stride=(2, 2), dilation=(1, 1), ceil_mode=False)
  (10): Conv2d(128, 256, kernel_size=(3, 3), stride=(1, 1), padding=(1, 1))
  (11): ReLU(inplace)
  (12): Conv2d(256, 256, kernel_size=(3, 3), stride=(1, 1), padding=(1, 1))
  (13): ReLU(inplace)
  (14): Conv2d(256, 256, kernel_size=(3, 3), stride=(1, 1), padding=(1, 1))
  (15): ReLU(inplace)
  (16): MaxPool2d(kernel_size=(2, 2), stride=(2, 2), dilation=(1, 1), ceil_mode=True)
  (17): Conv2d(256, 512, kernel_size=(3, 3), stride=(1, 1), padding=(1, 1))
  (18): ReLU(inplace)
  (19): Conv2d(512, 512, kernel_size=(3, 3), stride=(1, 1), padding=(1, 1))
  (20): ReLU(inplace)
  (21): Conv2d(512, 512, kernel_size=(3, 3), stride=(1, 1), padding=(1, 1))
  (22): ReLU(inplace)
  (23): MaxPool2d(kernel_size=(2, 2), stride=(2, 2), dilation=(1, 1), ceil_mode=False)
  (24): Conv2d(512, 512, kernel_size=(3, 3), stride=(1, 1), padding=(1, 1))
  (25): ReLU(inplace)
  (26): Conv2d(512, 512, kernel_size=(3, 3), stride=(1, 1), padding=(1, 1))
  (27): ReLU(inplace)
  (28): Conv2d(512, 512, kernel_size=(3, 3), stride=(1, 1), padding=(1, 1))
  (29): ReLU(inplace)
  (30): MaxPool2d(kernel_size=(3, 3), stride=(1, 1), padding=(1, 1), dilation=(1, 1), ceil_mode=False)
  (31): Conv2d(512, 1024, kernel_size=(3, 3), stride=(1, 1), padding=(6, 6), dilation=(6, 6))
  (32): ReLU(inplace)
  (33): Conv2d(1024, 1024, kernel_size=(1, 1), stride=(1, 1))
  (34): ReLU(inplace)
)
Namespace(arch='inception_v1_cpm_pretrained', batch_size=180, caffe_sampler=False, crop_height=160, crop_width=80, data_dir='/home/zhouzhp/video-counting/SST-master/data', dataset='market1501', dilation=2, epochs=750, features=512, height=160, logs_dir='/home/zhouzhp/video-counting/SST-master/logs', lr=0.01, margin=0.2, momentum=0.9, seed=1, split=0, use_relu=False, weight_decay=0.0002, width=80, workers=4)
Files already downloaded and verified
Market1501 dataset loaded
  subset   | # ids | # images
  ---------------------------
  train    |   651 |    11387
  val      |   100 |     1549
  trainval |   751 |    12936
  query    |   750 |     3368
  gallery  |   751 |    15913
ModuleList(
  (0): Conv2d(3, 64, kernel_size=(3, 3), stride=(1, 1), padding=(1, 1))
  (1): ReLU(inplace)
  (2): Conv2d(64, 64, kernel_size=(3, 3), stride=(1, 1), padding=(1, 1))
  (3): ReLU(inplace)
  (4): MaxPool2d(kernel_size=(2, 2), stride=(2, 2), dilation=(1, 1), ceil_mode=False)
  (5): Conv2d(64, 128, kernel_size=(3, 3), stride=(1, 1), padding=(1, 1))
  (6): ReLU(inplace)
  (7): Conv2d(128, 128, kernel_size=(3, 3), stride=(1, 1), padding=(1, 1))
  (8): ReLU(inplace)
  (9): MaxPool2d(kernel_size=(2, 2), stride=(2, 2), dilation=(1, 1), ceil_mode=False)
  (10): Conv2d(128, 256, kernel_size=(3, 3), stride=(1, 1), padding=(1, 1))
  (11): ReLU(inplace)
  (12): Conv2d(256, 256, kernel_size=(3, 3), stride=(1, 1), padding=(1, 1))
  (13): ReLU(inplace)
  (14): Conv2d(256, 256, kernel_size=(3, 3), stride=(1, 1), padding=(1, 1))
  (15): ReLU(inplace)
  (16): MaxPool2d(kernel_size=(2, 2), stride=(2, 2), dilation=(1, 1), ceil_mode=True)
  (17): Conv2d(256, 512, kernel_size=(3, 3), stride=(1, 1), padding=(1, 1))
  (18): ReLU(inplace)
  (19): Conv2d(512, 512, kernel_size=(3, 3), stride=(1, 1), padding=(1, 1))
  (20): ReLU(inplace)
  (21): Conv2d(512, 512, kernel_size=(3, 3), stride=(1, 1), padding=(1, 1))
  (22): ReLU(inplace)
  (23): MaxPool2d(kernel_size=(2, 2), stride=(2, 2), dilation=(1, 1), ceil_mode=False)
  (24): Conv2d(512, 512, kernel_size=(3, 3), stride=(1, 1), padding=(1, 1))
  (25): ReLU(inplace)
  (26): Conv2d(512, 512, kernel_size=(3, 3), stride=(1, 1), padding=(1, 1))
  (27): ReLU(inplace)
  (28): Conv2d(512, 512, kernel_size=(3, 3), stride=(1, 1), padding=(1, 1))
  (29): ReLU(inplace)
  (30): MaxPool2d(kernel_size=(3, 3), stride=(1, 1), padding=(1, 1), dilation=(1, 1), ceil_mode=False)
  (31): Conv2d(512, 1024, kernel_size=(3, 3), stride=(1, 1), padding=(6, 6), dilation=(6, 6))
  (32): ReLU(inplace)
  (33): Conv2d(1024, 1024, kernel_size=(1, 1), stride=(1, 1))
  (34): ReLU(inplace)
)
Namespace(arch='inception_v1_cpm_pretrained', batch_size=180, caffe_sampler=False, crop_height=160, crop_width=80, data_dir='/home/zhouzhp/video-counting/SST-master/data', dataset='market1501', dilation=2, epochs=750, features=512, height=160, logs_dir='/home/zhouzhp/video-counting/SST-master/logs', lr=0.01, margin=0.2, momentum=0.9, seed=1, split=0, use_relu=False, weight_decay=0.0002, width=80, workers=4)
Files already downloaded and verified
Market1501 dataset loaded
  subset   | # ids | # images
  ---------------------------
  train    |   651 |    11387
  val      |   100 |     1549
  trainval |   751 |    12936
  query    |   750 |     3368
  gallery  |   751 |    15913
ModuleList(
  (0): Conv2d(3, 64, kernel_size=(3, 3), stride=(1, 1), padding=(1, 1))
  (1): ReLU(inplace)
  (2): Conv2d(64, 64, kernel_size=(3, 3), stride=(1, 1), padding=(1, 1))
  (3): ReLU(inplace)
  (4): MaxPool2d(kernel_size=(2, 2), stride=(2, 2), dilation=(1, 1), ceil_mode=False)
  (5): Conv2d(64, 128, kernel_size=(3, 3), stride=(1, 1), padding=(1, 1))
  (6): ReLU(inplace)
  (7): Conv2d(128, 128, kernel_size=(3, 3), stride=(1, 1), padding=(1, 1))
  (8): ReLU(inplace)
  (9): MaxPool2d(kernel_size=(2, 2), stride=(2, 2), dilation=(1, 1), ceil_mode=False)
  (10): Conv2d(128, 256, kernel_size=(3, 3), stride=(1, 1), padding=(1, 1))
  (11): ReLU(inplace)
  (12): Conv2d(256, 256, kernel_size=(3, 3), stride=(1, 1), padding=(1, 1))
  (13): ReLU(inplace)
  (14): Conv2d(256, 256, kernel_size=(3, 3), stride=(1, 1), padding=(1, 1))
  (15): ReLU(inplace)
  (16): MaxPool2d(kernel_size=(2, 2), stride=(2, 2), dilation=(1, 1), ceil_mode=True)
  (17): Conv2d(256, 512, kernel_size=(3, 3), stride=(1, 1), padding=(1, 1))
  (18): ReLU(inplace)
  (19): Conv2d(512, 512, kernel_size=(3, 3), stride=(1, 1), padding=(1, 1))
  (20): ReLU(inplace)
  (21): Conv2d(512, 512, kernel_size=(3, 3), stride=(1, 1), padding=(1, 1))
  (22): ReLU(inplace)
  (23): MaxPool2d(kernel_size=(2, 2), stride=(2, 2), dilation=(1, 1), ceil_mode=False)
  (24): Conv2d(512, 512, kernel_size=(3, 3), stride=(1, 1), padding=(1, 1))
  (25): ReLU(inplace)
  (26): Conv2d(512, 512, kernel_size=(3, 3), stride=(1, 1), padding=(1, 1))
  (27): ReLU(inplace)
  (28): Conv2d(512, 512, kernel_size=(3, 3), stride=(1, 1), padding=(1, 1))
  (29): ReLU(inplace)
  (30): MaxPool2d(kernel_size=(3, 3), stride=(1, 1), padding=(1, 1), dilation=(1, 1), ceil_mode=False)
  (31): Conv2d(512, 1024, kernel_size=(3, 3), stride=(1, 1), padding=(6, 6), dilation=(6, 6))
  (32): ReLU(inplace)
  (33): Conv2d(1024, 1024, kernel_size=(1, 1), stride=(1, 1))
  (34): ReLU(inplace)
)
Namespace(arch='inception_v1_cpm_pretrained', batch_size=180, caffe_sampler=False, crop_height=160, crop_width=80, data_dir='/home/zhouzhp/video-counting/SST-master/data', dataset='market1501', dilation=2, epochs=750, features=512, height=160, logs_dir='/home/zhouzhp/video-counting/SST-master/logs', lr=0.01, margin=0.2, momentum=0.9, seed=1, split=0, use_relu=False, weight_decay=0.0002, width=80, workers=4)
Files already downloaded and verified
Market1501 dataset loaded
  subset   | # ids | # images
  ---------------------------
  train    |   651 |    11387
  val      |   100 |     1549
  trainval |   751 |    12936
  query    |   750 |     3368
  gallery  |   751 |    15913
ModuleList(
  (0): Conv2d(3, 64, kernel_size=(3, 3), stride=(1, 1), padding=(1, 1))
  (1): ReLU(inplace)
  (2): Conv2d(64, 64, kernel_size=(3, 3), stride=(1, 1), padding=(1, 1))
  (3): ReLU(inplace)
  (4): MaxPool2d(kernel_size=(2, 2), stride=(2, 2), dilation=(1, 1), ceil_mode=False)
  (5): Conv2d(64, 128, kernel_size=(3, 3), stride=(1, 1), padding=(1, 1))
  (6): ReLU(inplace)
  (7): Conv2d(128, 128, kernel_size=(3, 3), stride=(1, 1), padding=(1, 1))
  (8): ReLU(inplace)
  (9): MaxPool2d(kernel_size=(2, 2), stride=(2, 2), dilation=(1, 1), ceil_mode=False)
  (10): Conv2d(128, 256, kernel_size=(3, 3), stride=(1, 1), padding=(1, 1))
  (11): ReLU(inplace)
  (12): Conv2d(256, 256, kernel_size=(3, 3), stride=(1, 1), padding=(1, 1))
  (13): ReLU(inplace)
  (14): Conv2d(256, 256, kernel_size=(3, 3), stride=(1, 1), padding=(1, 1))
  (15): ReLU(inplace)
  (16): MaxPool2d(kernel_size=(2, 2), stride=(2, 2), dilation=(1, 1), ceil_mode=True)
  (17): Conv2d(256, 512, kernel_size=(3, 3), stride=(1, 1), padding=(1, 1))
  (18): ReLU(inplace)
  (19): Conv2d(512, 512, kernel_size=(3, 3), stride=(1, 1), padding=(1, 1))
  (20): ReLU(inplace)
  (21): Conv2d(512, 512, kernel_size=(3, 3), stride=(1, 1), padding=(1, 1))
  (22): ReLU(inplace)
  (23): MaxPool2d(kernel_size=(2, 2), stride=(2, 2), dilation=(1, 1), ceil_mode=False)
  (24): Conv2d(512, 512, kernel_size=(3, 3), stride=(1, 1), padding=(1, 1))
  (25): ReLU(inplace)
  (26): Conv2d(512, 512, kernel_size=(3, 3), stride=(1, 1), padding=(1, 1))
  (27): ReLU(inplace)
  (28): Conv2d(512, 512, kernel_size=(3, 3), stride=(1, 1), padding=(1, 1))
  (29): ReLU(inplace)
  (30): MaxPool2d(kernel_size=(3, 3), stride=(1, 1), padding=(1, 1), dilation=(1, 1), ceil_mode=False)
  (31): Conv2d(512, 1024, kernel_size=(3, 3), stride=(1, 1), padding=(6, 6), dilation=(6, 6))
  (32): ReLU(inplace)
  (33): Conv2d(1024, 1024, kernel_size=(1, 1), stride=(1, 1))
  (34): ReLU(inplace)
)
Namespace(arch='inception_v1_cpm_pretrained', batch_size=180, caffe_sampler=False, crop_height=160, crop_width=80, data_dir='/home/zhouzhp/video-counting/SST-master/data', dataset='market1501', dilation=2, epochs=750, features=512, height=160, logs_dir='/home/zhouzhp/video-counting/SST-master/logs', lr=0.01, margin=0.2, momentum=0.9, seed=1, split=0, use_relu=False, weight_decay=0.0002, width=80, workers=4)
Files already downloaded and verified
Market1501 dataset loaded
  subset   | # ids | # images
  ---------------------------
  train    |   651 |    11387
  val      |   100 |     1549
  trainval |   751 |    12936
  query    |   750 |     3368
  gallery  |   751 |    15913
ModuleList(
  (0): Conv2d(3, 64, kernel_size=(3, 3), stride=(1, 1), padding=(1, 1))
  (1): ReLU(inplace)
  (2): Conv2d(64, 64, kernel_size=(3, 3), stride=(1, 1), padding=(1, 1))
  (3): ReLU(inplace)
  (4): MaxPool2d(kernel_size=(2, 2), stride=(2, 2), dilation=(1, 1), ceil_mode=False)
  (5): Conv2d(64, 128, kernel_size=(3, 3), stride=(1, 1), padding=(1, 1))
  (6): ReLU(inplace)
  (7): Conv2d(128, 128, kernel_size=(3, 3), stride=(1, 1), padding=(1, 1))
  (8): ReLU(inplace)
  (9): MaxPool2d(kernel_size=(2, 2), stride=(2, 2), dilation=(1, 1), ceil_mode=False)
  (10): Conv2d(128, 256, kernel_size=(3, 3), stride=(1, 1), padding=(1, 1))
  (11): ReLU(inplace)
  (12): Conv2d(256, 256, kernel_size=(3, 3), stride=(1, 1), padding=(1, 1))
  (13): ReLU(inplace)
  (14): Conv2d(256, 256, kernel_size=(3, 3), stride=(1, 1), padding=(1, 1))
  (15): ReLU(inplace)
  (16): MaxPool2d(kernel_size=(2, 2), stride=(2, 2), dilation=(1, 1), ceil_mode=True)
  (17): Conv2d(256, 512, kernel_size=(3, 3), stride=(1, 1), padding=(1, 1))
  (18): ReLU(inplace)
  (19): Conv2d(512, 512, kernel_size=(3, 3), stride=(1, 1), padding=(1, 1))
  (20): ReLU(inplace)
  (21): Conv2d(512, 512, kernel_size=(3, 3), stride=(1, 1), padding=(1, 1))
  (22): ReLU(inplace)
  (23): MaxPool2d(kernel_size=(2, 2), stride=(2, 2), dilation=(1, 1), ceil_mode=False)
  (24): Conv2d(512, 512, kernel_size=(3, 3), stride=(1, 1), padding=(1, 1))
  (25): ReLU(inplace)
  (26): Conv2d(512, 512, kernel_size=(3, 3), stride=(1, 1), padding=(1, 1))
  (27): ReLU(inplace)
  (28): Conv2d(512, 512, kernel_size=(3, 3), stride=(1, 1), padding=(1, 1))
  (29): ReLU(inplace)
  (30): MaxPool2d(kernel_size=(3, 3), stride=(1, 1), padding=(1, 1), dilation=(1, 1), ceil_mode=False)
  (31): Conv2d(512, 1024, kernel_size=(3, 3), stride=(1, 1), padding=(6, 6), dilation=(6, 6))
  (32): ReLU(inplace)
  (33): Conv2d(1024, 1024, kernel_size=(1, 1), stride=(1, 1))
  (34): ReLU(inplace)
)
Namespace(arch='inception_v1_cpm_pretrained', batch_size=180, caffe_sampler=False, crop_height=160, crop_width=80, data_dir='/home/zhouzhp/video-counting/SST-master/data', dataset='market1501', dilation=2, epochs=750, features=512, height=160, logs_dir='/home/zhouzhp/video-counting/SST-master/logs', lr=0.01, margin=0.2, momentum=0.9, seed=1, split=0, use_relu=False, weight_decay=0.0002, width=80, workers=4)
Files already downloaded and verified
Market1501 dataset loaded
  subset   | # ids | # images
  ---------------------------
  train    |   651 |    11387
  val      |   100 |     1549
  trainval |   751 |    12936
  query    |   750 |     3368
  gallery  |   751 |    15913
ModuleList(
  (0): Conv2d(3, 64, kernel_size=(3, 3), stride=(1, 1), padding=(1, 1))
  (1): ReLU(inplace)
  (2): Conv2d(64, 64, kernel_size=(3, 3), stride=(1, 1), padding=(1, 1))
  (3): ReLU(inplace)
  (4): MaxPool2d(kernel_size=(2, 2), stride=(2, 2), dilation=(1, 1), ceil_mode=False)
  (5): Conv2d(64, 128, kernel_size=(3, 3), stride=(1, 1), padding=(1, 1))
  (6): ReLU(inplace)
  (7): Conv2d(128, 128, kernel_size=(3, 3), stride=(1, 1), padding=(1, 1))
  (8): ReLU(inplace)
  (9): MaxPool2d(kernel_size=(2, 2), stride=(2, 2), dilation=(1, 1), ceil_mode=False)
  (10): Conv2d(128, 256, kernel_size=(3, 3), stride=(1, 1), padding=(1, 1))
  (11): ReLU(inplace)
  (12): Conv2d(256, 256, kernel_size=(3, 3), stride=(1, 1), padding=(1, 1))
  (13): ReLU(inplace)
  (14): Conv2d(256, 256, kernel_size=(3, 3), stride=(1, 1), padding=(1, 1))
  (15): ReLU(inplace)
  (16): MaxPool2d(kernel_size=(2, 2), stride=(2, 2), dilation=(1, 1), ceil_mode=True)
  (17): Conv2d(256, 512, kernel_size=(3, 3), stride=(1, 1), padding=(1, 1))
  (18): ReLU(inplace)
  (19): Conv2d(512, 512, kernel_size=(3, 3), stride=(1, 1), padding=(1, 1))
  (20): ReLU(inplace)
  (21): Conv2d(512, 512, kernel_size=(3, 3), stride=(1, 1), padding=(1, 1))
  (22): ReLU(inplace)
  (23): MaxPool2d(kernel_size=(2, 2), stride=(2, 2), dilation=(1, 1), ceil_mode=False)
  (24): Conv2d(512, 512, kernel_size=(3, 3), stride=(1, 1), padding=(1, 1))
  (25): ReLU(inplace)
  (26): Conv2d(512, 512, kernel_size=(3, 3), stride=(1, 1), padding=(1, 1))
  (27): ReLU(inplace)
  (28): Conv2d(512, 512, kernel_size=(3, 3), stride=(1, 1), padding=(1, 1))
  (29): ReLU(inplace)
  (30): MaxPool2d(kernel_size=(3, 3), stride=(1, 1), padding=(1, 1), dilation=(1, 1), ceil_mode=False)
  (31): Conv2d(512, 1024, kernel_size=(3, 3), stride=(1, 1), padding=(6, 6), dilation=(6, 6))
  (32): ReLU(inplace)
  (33): Conv2d(1024, 1024, kernel_size=(1, 1), stride=(1, 1))
  (34): ReLU(inplace)
)
Namespace(arch='inception_v1_cpm_pretrained', batch_size=180, caffe_sampler=False, crop_height=160, crop_width=80, data_dir='/home/zhouzhp/video-counting/SST-master/data', dataset='market1501', dilation=2, epochs=750, features=512, height=160, logs_dir='/home/zhouzhp/video-counting/SST-master/logs', lr=0.01, margin=0.2, momentum=0.9, seed=1, split=0, use_relu=False, weight_decay=0.0002, width=80, workers=4)
Files already downloaded and verified
Market1501 dataset loaded
  subset   | # ids | # images
  ---------------------------
  train    |   651 |    11387
  val      |   100 |     1549
  trainval |   751 |    12936
  query    |   750 |     3368
  gallery  |   751 |    15913
ModuleList(
  (0): Conv2d(3, 64, kernel_size=(3, 3), stride=(1, 1), padding=(1, 1))
  (1): ReLU(inplace)
  (2): Conv2d(64, 64, kernel_size=(3, 3), stride=(1, 1), padding=(1, 1))
  (3): ReLU(inplace)
  (4): MaxPool2d(kernel_size=(2, 2), stride=(2, 2), dilation=(1, 1), ceil_mode=False)
  (5): Conv2d(64, 128, kernel_size=(3, 3), stride=(1, 1), padding=(1, 1))
  (6): ReLU(inplace)
  (7): Conv2d(128, 128, kernel_size=(3, 3), stride=(1, 1), padding=(1, 1))
  (8): ReLU(inplace)
  (9): MaxPool2d(kernel_size=(2, 2), stride=(2, 2), dilation=(1, 1), ceil_mode=False)
  (10): Conv2d(128, 256, kernel_size=(3, 3), stride=(1, 1), padding=(1, 1))
  (11): ReLU(inplace)
  (12): Conv2d(256, 256, kernel_size=(3, 3), stride=(1, 1), padding=(1, 1))
  (13): ReLU(inplace)
  (14): Conv2d(256, 256, kernel_size=(3, 3), stride=(1, 1), padding=(1, 1))
  (15): ReLU(inplace)
  (16): MaxPool2d(kernel_size=(2, 2), stride=(2, 2), dilation=(1, 1), ceil_mode=True)
  (17): Conv2d(256, 512, kernel_size=(3, 3), stride=(1, 1), padding=(1, 1))
  (18): ReLU(inplace)
  (19): Conv2d(512, 512, kernel_size=(3, 3), stride=(1, 1), padding=(1, 1))
  (20): ReLU(inplace)
  (21): Conv2d(512, 512, kernel_size=(3, 3), stride=(1, 1), padding=(1, 1))
  (22): ReLU(inplace)
  (23): MaxPool2d(kernel_size=(2, 2), stride=(2, 2), dilation=(1, 1), ceil_mode=False)
  (24): Conv2d(512, 512, kernel_size=(3, 3), stride=(1, 1), padding=(1, 1))
  (25): ReLU(inplace)
  (26): Conv2d(512, 512, kernel_size=(3, 3), stride=(1, 1), padding=(1, 1))
  (27): ReLU(inplace)
  (28): Conv2d(512, 512, kernel_size=(3, 3), stride=(1, 1), padding=(1, 1))
  (29): ReLU(inplace)
  (30): MaxPool2d(kernel_size=(3, 3), stride=(1, 1), padding=(1, 1), dilation=(1, 1), ceil_mode=False)
  (31): Conv2d(512, 1024, kernel_size=(3, 3), stride=(1, 1), padding=(6, 6), dilation=(6, 6))
  (32): ReLU(inplace)
  (33): Conv2d(1024, 1024, kernel_size=(1, 1), stride=(1, 1))
  (34): ReLU(inplace)
)
Namespace(arch='inception_v1_cpm_pretrained', batch_size=180, caffe_sampler=False, crop_height=160, crop_width=80, data_dir='/home/zhouzhp/video-counting/SST-master/data', dataset='market1501', dilation=2, epochs=750, features=512, height=160, logs_dir='/home/zhouzhp/video-counting/SST-master/logs', lr=0.01, margin=0.2, momentum=0.9, seed=1, split=0, use_relu=False, weight_decay=0.0002, width=80, workers=4)
…
